XOR/models/models/xor.tflite (tflite, 1308 bytes, 3 tensors)

dense_1/MatMul_bias f4 [8]
000000 4b 2a 12 c0 d9 28 22 3d 2a 18 b2 3f 29 e0 04 be
       -2.2838314 0.039589737 1.3913624 -0.12976135
000010 e8 ad 84 3d 9b 5c 2d 3f 34 a9 44 3c 3c 56 58 bf
       0.064784825 0.6771943 0.012003232 -0.84506583

dense_1/kernel/transpose f4 [8, 2]
000000 14 35 b7 c0 99 28 95 40 22 78 9b 3e 0a 7f 82 be
       -5.7252293 4.661206 0.30365092 -0.25487548
000010 26 c2 41 c0 ac 99 8f 40 18 70 57 bf 62 e0 d3 bc
       -3.0274749 4.487509 -0.84155416 -0.02586383
000020 b4 1f 84 be 97 3a fa be 33 a6 6b c0 d9 6f 5a c0
       -0.25805438 -0.48872826 -3.682019 -3.4130766
000030 90 8c 3b bf 7c 66 02 3e 3a 2a f0 3f be 9e 56 c0
       -0.73261356 0.12734407 1.8762887 -3.3534389

dense_2/kernel/transpose f4 [1, 8]
000000 08 02 f6 40 5d 08 c4 3e 91 49 a4 c0 15 c2 8b 3c
       7.687748 0.3828763 -5.1339803 0.017060319
000010 79 39 74 3f 6f 7a 81 c0 12 24 49 3e d2 2f 6e 40
       0.95400196 -4.0461955 0.19642666 3.7216687
