XOR/Android/app/src/main/assets/xor.tflite (tflite, 1308 bytes, 3 tensors)

dense_1/MatMul_bias f4 [8]
000000 72 0c af 3d 80 b6 49 3f 61 73 68 bd 5a 8b b1 bf
       0.08547296 0.787941 -0.05675066 -1.3870652
000010 49 ad c4 3f da 00 19 40 79 a5 4a c0 74 7d 84 bf
       1.5365382 2.390677 -3.1663496 -1.0350785

dense_1/kernel/transpose f4 [8, 2]
000000 48 93 60 c0 7e 11 86 3f 2e 3a 7e bf 2f 88 29 bf
       -3.5089893 1.0474088 -0.99307525 -0.66223425
000010 b5 ed 8a bf eb dc e3 bb a6 51 84 3f e9 ca 8e 3f
       -1.0853792 -0.0069538257 1.0337417 1.1155673
000020 27 6a 8b bf cf f6 99 bf 40 a8 c3 c0 83 c1 c4 c0
       -1.089177 -1.2028445 -6.1142883 -6.148622
000030 bb cd 04 40 a3 f0 06 40 79 62 0f 40 0d 00 74 c0
       2.0750568 2.1084373 2.2403853 -3.812503

dense_2/kernel/transpose f4 [1, 8]
000000 79 b1 74 40 b2 e1 d8 3f c2 06 7f 3f de 64 0e c0
       3.823332 1.6943877 0.99619687 -2.2249064
000010 ed 7b 14 40 8f 9c 19 c1 fe c1 86 c0 52 83 80 40
       2.3200638 -9.600722 -4.2111807 4.0160303
